…
2021-09-08 21:15:36.224532: I tensorflow/stream_executor/cuda/cuda_diagnostics.cc:176] hostname: DESKTOP-JGO3GGS
2021-09-08 21:15:36.225240: I tensorflow/core/platform/cpu_feature_guard.cc:142] This TensorFlow binary is optimized with oneAPI Deep Neural Network Library (oneDNN) to use the following CPU instructions in performance-critical operations:  AVX AVX2
To enable them in other operations, rebuild TensorFlow with the appropriate compiler flags.
Model: "sequential"
_________________________________________________________________
Layer (type)                 Output Shape              Param #   
=================================================================
encoder_1 (LSTM)             (None, 30, 256)           264192    
_________________________________________________________________
dropout (Dropout)            (None, 30, 256)           0         
_________________________________________________________________
encoder_2 (LSTM)             (None, 30, 128)           197120    
_________________________________________________________________
dropout_1 (Dropout)          (None, 30, 128)           0         
_________________________________________________________________
encoder_3 (LSTM)             (None, 64)                49408     
_________________________________________________________________
encoder_decoder (RepeatVecto (None, 30, 64)            0         
_________________________________________________________________
decoder_1 (LSTM)             (None, 30, 64)            33024     
_________________________________________________________________
dropout_2 (Dropout)          (None, 30, 64)            0         
_________________________________________________________________
decoder_2 (LSTM)             (None, 30, 128)           98816     
_________________________________________________________________
dropout_3 (Dropout)          (None, 30, 128)           0         
_________________________________________________________________
decoder_3 (LSTM)             (None, 30, 256)           394240    
_________________________________________________________________
time_distributed (TimeDistri (None, 30, 1)             257       
=================================================================
Total params: 1,037,057
Trainable params: 1,037,057
Non-trainable params: 0
_________________________________________________________________
2021-09-08 21:15:38.149406: I tensorflow/compiler/mlir/mlir_graph_optimization_pass.cc:185] None of the MLIR Optimization Passes are enabled (registered 2)
Epoch 1/25
650/650 [==============================] - 871s 1s/step - loss: 0.0502 - val_loss: 0.0432
…
